src/model.pth (torch, 3633 bytes, 7 tensors)

encoder.0.weight f4 [2, 3]
00000000: f975 a23e a446 04bf b203 ea3e 9310 78be
00000010: 92a4 083f ac12 0fbf
0.3173063 -0.5167029 0.45705944 -0.24225073 0.53376114 -0.55887866

encoder.0.bias f4 [2]
00000000: 509d 833e 0c81 ed3e
0.25705957 0.46387517

encoder.2.weight f4 [1, 2]
00000000: ff74 d7be 1cc4 cbbe
-0.42081448 -0.39798057

decoder.0.weight f4 [2, 1]
00000000: f8a0 943e 786e e9bd
0.2902906 -0.11398023

decoder.0.bias f4 [2]
00000000: 2e8b 33bf bca2 05bc
-0.70134246 -0.008156475

decoder.2.weight f4 [3, 2]
00000000: 863d fbbe 0ce3 e8be 32cb aebe 18cb cc3b
00000010: a1d2 09bf 7c73 cabe
-0.49070376 -0.45485723 -0.341394 0.0062497966 -0.5383702 -0.39541233

decoder.2.bias f4 [3]
00000000: 5723 093f c3a5 ef3e 9945 033f
0.5356955 0.46806154 0.5127807
