src/model.pth (torch, 3633 bytes, 7 tensors)

encoder.0.weight f4 [2, 2]
0	0x3ed59629	0.41716126
1	0x3fc46dce	1.534601
2	0xbda97366	-0.08273964
3	0x3ed884b3	0.4228874

encoder.0.bias f4 [2]
0	0x3e25573a	0.16146556
1	0xbec6cace	-0.38826603

encoder.2.weight f4 [1, 2]
0	0xbf80ff57	-1.0077924
1	0x3ea63df2	0.32469136

decoder.0.weight f4 [2, 1]
0	0xbf458166	-0.7715057
1	0xbe7ccc9f	-0.24687432

decoder.0.bias f4 [2]
0	0xbe710dd6	-0.23540434
1	0x3f23fd39	0.6405826

decoder.2.weight f4 [2, 2]
0	0x3e258f8f	0.16168045
1	0x3e0e92c3	0.13923173
2	0x3f2db15b	0.6784875
3	0x3ea5c43d	0.3237628

decoder.2.bias f4 [2]
0	0x3e7b6797	0.24551235
1	0xbeb4d947	-0.3532202
